LSTM.model (torch, 818815 bytes, 10 tensors)

weight_ih_l0 f4 [512, 2]
00000000: d178 8c3d 5250 413d 0835 3abc c7fd c5bd
00000010: 4ec8 cabd 4fe9 94bd bff2 17bd bb38 683d
00000020: ae68 6dbd bcc4 19be c6a2 e5ba 2d01 98bd
00000030: 6776 a4bd 2d6c 6dbd 75a7 c33d 8b38 153d
00000040: f264 25bd 71a0 5c3b 22b4 6f3b 1960 9cbd
00000050: 4e9b 583b 78b4 c83d aef1 c53c ed3d 173e
00000060: f8d4 713d 89f9 783e 46a8 e53d 66f5 abbd
00000070: 76b3 cd3d a143 e23d e0ab 1fbe 7f77 c73c
00000080: 0f6d 9c3e 212d 7cbe ccf0 33bc 090a 17bf
00000090: db42 28be 02ea 353e 4d02 99bd 4168 c2bc
000000a0: 1035 63bc ceab bebd 5818 9e3d 8c12 98be
000000b0: c8aa 983d 2a12 f6be 5699 603d 2082 72bb
000000c0: 6f44 a13c 0b50 b63e d50e 42bd 0e99 923d
000000d0: f935 86bd 7ea9 13bd 32a2 ff3d 99d4 c5bc
000000e0: 1100 643d 67b5 3ebe db6e b53d 75ad 8cbe
000000f0: e5bc 2c3d ea66 b9bd 42b2 c73e f5e5 a33d
00000100: 1e74 5abb 4355 24bd 28bc 483d 869f 29be
00000110: 1c00 5c3e 081f 03bd e2ca 21bd 4c07 91bc
00000120: ac8d 6abd 6c59 633e 1257 533d 4497 abbd
00000130: c2a8 44bd 86a7 0b3e e074 903d 066b 233e
00000140: 5e4a 623e d11c d3be 31b6 583c 9d98 233d
00000150: e3be 1c3d 2cb3 b8bd fdfe 54bb 975d 55bd
00000160: 2978 963d fe69 56bd 8a44 7c3d 1a68 8e3d
00000170: c066 9a3c 9e68 7d3d 6f2a e03c e83b bc3b
00000180: fd6d a63c 1b74 c1bc 3d71 163c b21f 703d
00000190: 2766 d3bc a89f 2ebc b57c 9b3e 3574 073e
000001a0: 6db3 15bd 3687 21be 90e9 01bc 2908 4b3d
000001b0: 686e 903d 1e27 7dbc 594f 9f3e 9e59 23be
000001c0: f053 0f3e e15a 273e dd06 c2bd 9925 113c
000001d0: 834f 24be 781f 5bbe 10aa 2dbd 6d37 e7bc
000001e0: 88cf 0c3f babc 59bc 1ecc 8c3d 5417 a53b
000001f0: ddee 163d bd61 a83d a990 e1bd 96d9 9e3d
00000200: 9cb9 a3bd fc0f 78bc 08ab 963d 0af6 023f
00000210: 3225 59bd e757 893e 3e32 113e 278d 47be
00000220: a7e6 05bd 7bb7 963d 13cb 823e 1150 de3b
00000230: a941 ac3d 3e93 02be 840d a33c 120e 63bd
00000240: a6ca dc3d 99e3 bf3d 7d02 873c b5e1 c7bc
00000250: 028a d0bd de28 50be 72cb ad3d fcae 16be
00000260: 35cc 963e b8eb dfbc 57d4 9d3e 2869 8a3e
00000270: 7f5f 3ebd bef0 603b 520a 3abd 0cc0 bfbc
00000280: 1706 1d3c c8ec e2bc f68e 993c 3822 983e
00000290: cf70 f23d 8880 37bd 3439 c53c 79f4 1a3d
000002a0: b777 663e 2fd1 9bbd 7bc5 36bb 4cb6 24bd
000002b0: b628 29bc adf2 003e 0822 d13d d697 dcbc
000002c0: aaa3 543d de4a c13c a1b4 973d 95ff 10be
000002d0: 7df9 b9bd 74e9 08be e327 24bb e3f3 063f
000002e0: 7213 0cbd e5b4 363c 1941 553d 7f81 8cbe
000002f0: 6af7 b8bd 5f97 333d 8b19 143e 93d9 b23e
00000300: 851a 153e fec5 1b3e 62ed 8d3d d8f3 fdbe
00000310: 6a1d b73e 346c dfbd e366 36bd f21d 353e
00000320: a6fd 42bd 5ecd 5bbd 18ce 92bb 540d f3bc
00000330: 7e83 673d 216d d33d b126 863d 182c cc3d
00000340: f9d2 393e 3b87 b9bd df40 be3b 3dc9 e1bc
00000350: 4dda 883c cab6 e8bd 2332 1ebd 4fdd 483c
00000360: 12a7 053d b7db 11be ba49 b13c f3cc 7fbe
00000370: b67b 593d 97cb a4bb 6094 08bd 211f 15bd
00000380: 73c4 283a 956f 6d3d a295 a83a e64d bb3d
00000390: 474c 20bd c515 f2bd 636c 9c3d e953 94bd
000003a0: 39cb ee3d 7e81 96bb 0175 233d 3eef f93e
000003b0: 1c51 763d 6ba0 25bd 76d9 5dbd 864c 00bd
000003c0: 62a0 533e 6e9e 07be 16c2 15bd 38f2 92bd
000003d0: 1bff c03e 8904 963e 4871 ad3d 30b7 893d
000003e0: 5534 8b3d 502a 5dbe 38f4 a03d 2cf0 a5bc
000003f0: 4761 a93e 8bf0 1f3e 4b55 35bc 4a1d bb3c
0.068589814 0.04719574 -0.011365183 -0.09667545 -0.09901486 -0.072710626 -0.037096735 0.056694727
-0.05796116 -0.15016454 -0.0017519824 -0.07422099 -0.08030396 -0.057964493 0.09553424 0.036430877
-0.040379472 0.0033664966 0.0036575873 -0.07635517 0.0033051553 0.09800047 0.024163093 0.14769717
0.059040993 0.2431394 0.11213736 -0.083964154 0.10043995 0.110480554 -0.15592909 0.024348972
0.30551955 -0.2462659 -0.010982703 -0.5899969 -0.16431753 0.17765048 -0.07471142 -0.023731353
-0.013867632 -0.09310113 0.07719487 -0.2970165 0.07454449 -0.48060733 0.054833733 -0.003700383
0.019685952 0.35607943 -0.047377426 0.07158099 -0.06553263 -0.036050312 0.12482108 -0.024149226
0.055664126 -0.18623887 0.08859035 -0.27476087 0.04217233 -0.090528324 0.39003187 0.08002845
-0.0033333371 -0.040120374 0.049007565 -0.1656476 0.21484417 -0.032012016 -0.039500125 -0.017703675
-0.057264015 0.2220208 0.05159671 -0.08378461 -0.048012502 0.13638124 0.07053542 0.15958795
0.22098681 -0.41232923 0.013227032 0.039940465 0.03826798 -0.09018549 -0.0032500618 -0.052091207
0.073471375 -0.052347176 0.0615888 0.069534495 0.018847823 0.06186735 0.027363984 0.005744446
0.020316118 -0.023614934 0.009182272 0.058623977 -0.025805546 -0.010658182 0.3036858 0.13227923
-0.036548067 -0.15774235 -0.007929221 0.04956833 0.07052308 -0.015451221 0.31115225 -0.15952155
0.13996863 0.16343261 -0.09473965 0.008859062 -0.16045956 -0.21398723 -0.042398512 -0.028224671
0.5500417 -0.013289625 0.0687487 0.0050381813 0.03684889 0.08221767 -0.1101392 0.07756345
-0.079943866 -0.01514053 0.0735684 0.51156676 -0.053013988 0.26824877 0.14179322 -0.19487439
-0.03269067 0.07359215 0.25545558 0.006784447 0.08410961 -0.12751481 0.019903906 -0.05543334
0.107808396 0.09369583 0.016480679 -0.024399618 -0.10182573 -0.2032809 0.0848607 -0.14715189
0.29452673 -0.02733408 0.30826065 0.27033353 -0.04647779 0.003432318 -0.04542 -0.023407005
0.009583971 -0.027700797 0.018744927 0.29713607 0.11837923 -0.04480031 0.024075128 0.037830804
0.22506605 -0.07608258 -0.0027888704 -0.040212914 -0.010324648 0.12592573 0.10211569 -0.02692787
0.051913895 0.02359527 0.07407499 -0.14159997 -0.09080789 -0.13370305 -0.0025048188 0.5271589
-0.034198232 0.011151527 0.052064035 -0.27442548 -0.090315655 0.04384553 0.14462869 0.3493162
0.14560898 0.15212247 0.06930043 -0.496001 0.3576463 -0.1090931 -0.044531714 0.17687204
-0.04760518 -0.05366265 -0.0044801347 -0.029669441 0.056521885 0.10323549 0.065503486 0.09969348
0.18146886 -0.09058996 0.005806073 -0.027561778 0.016705656 -0.11362989 -0.038622033 0.012259795
0.032630034 -0.14243971 0.0216416 -0.24980526 0.053096496 -0.0050291526 -0.033344626 -0.03640664
0.00064379646 0.05796774 0.0012861977 0.09145717 -0.039135244 -0.118205585 0.076378606 -0.07242567
0.116598554 -0.0045930734 0.039906505 0.4881534 0.060135946 -0.04043619 -0.054162465 -0.03132298
0.2066665 -0.1324403 -0.036562048 -0.07175106 0.3769463 0.29300335 0.08468872 0.06724393
0.06797091 -0.21598172 0.07859081 -0.020256124 0.3308203 0.15619104 -0.011067699 0.022841115

weight_hh_l0 f4 [512, 128]
00000000: 31f9 3fbd c664 3c3c d364 91bd f2a3 2e3d
00000010: 70ae 32bd c812 dbbd f787 b83d 814b 19bc
00000020: a89f f73d d37e 0d3d 652d 3abb 37bf 5b3b
00000030: 993d 6ebb a8f2 00bd 0d33 24be e511 2fbd
00000040: 9629 c63d 08aa 123d ad47 81bd bbf6 6ebd
00000050: 40e9 a4bd 6f48 343e 5616 c4bd 803a 183d
00000060: b39a 08be 3cb9 743c a368 93b9 0c8e 29be
00000070: 301c 4abd 539c d53c 6d4e 07be 2239 b03d
00000080: 8ecb ce3c 86ff d53d 77e9 a8bd f3de 97bd
00000090: de07 c53d 5374 f53d 5249 26bd 59af 6abd
000000a0: 7422 193d 4cbb 4cbc edae b0bc fff3 833c
000000b0: 19ce d1bd 867a b3bd c78b 9abc 7bdb 4c3d
000000c0: 10f9 0739 4c00 acbc cc46 f2bc abf0 e8bc
000000d0: 00aa 65bb 5a43 01bd 65b4 24bc f063 c5bb
000000e0: b072 803d 8606 c43c e3e9 313d dbb5 ffbb
000000f0: 599d 82bd ad0c a1bd e2bf 3bbd 7733 a23d
00000100: 503d 823c be35 c83d 164e 823d bf04 0d3e
00000110: a047 97bd 062e 20be 59a8 9b3c a2cb 833d
00000120: 3075 c1bc 2a8f ecbc 0a1d d9bb f72a 383a
00000130: 6858 823d 1535 71bd ff5a 193d bae2 bb3c
00000140: 8062 27bd a544 1cbd 62ca 6bbd 8bf6 a2bd
00000150: f51a 6cbd af64 013d 17c4 bbbc 6d76 f6bd
00000160: 9aab 5e3d 908f 38bd 5068 9ebc 3f74 ce3c
00000170: c468 9bbd ed12 c93c d8c1 03bd f9cf acbd
00000180: 0345 34bd 80e4 473d 161e 073e f48f 6a3d
00000190: 22a5 a9bd 1359 89bd c1db 533d f103 04bc
000001a0: 7d30 02bd d1f1 3cbd 252a ed3c 8692 4a3d
000001b0: ed06 af3d eae6 4cbd 607d 62bd 129d 633d
000001c0: 16f5 dbbc e6e1 b0ba 52c0 a73c 6918 a8bd
000001d0: aaf9 fabc b398 e2bd 03fc 87bd 0227 fd3c
000001e0: 25b9 1bbb 3d3c f2bc 4f89 c23d bb8b fbbd
000001f0: aa25 d3bc 8f85 0f3d f6ed 2bbd 6edc ad3d
00000200: c38a 863d e02f 7bb9 7192 d2bd bbec 183d
00000210: b0cd 503d 7496 36bc 711c 73bd 3a2a 84bd
00000220: 6e6f a8bd 99e2 15bd dbce 23bd f4c6 b3bd
00000230: 7c65 d3bd 7bad dabc b876 2e3d 5363 1b3c
00000240: 08fa 11be 0f51 f0bc 87aa e9bc 676a 773c
00000250: 787a 843d 43d5 37bd a8b8 033d a5a7 0bbd
00000260: 3769 013c e7e6 64bd 5c02 cabd 7435 6f3d
00000270: 8e86 26bd 14b9 71ba 0479 5c3c 1b23 91bd
00000280: 0027 8ebd 82f0 4abd 0e0f 37bc db9d 823c
00000290: 0001 23bd d67a a3bc 73ae 883c e190 573d
000002a0: 7666 2fbd f1c1 fdbc 9490 a53c 5d88 9fbd
000002b0: b338 cf3c 7206 d93b f66d 673c a2ab 89bd
000002c0: 0fc6 abbc 214a e3bc 7c7a 7c3c 022b 4abd
000002d0: 7cc4 e93b e341 4b3c d8f7 57bd 869a 093d
000002e0: 3977 7cbd 7748 fcbc 3599 cbbd 957e 1c3e
000002f0: 6acf c9bd 7791 c23c e186 b1bd 540c 09bd
00000300: 58fa c9bc c826 93bc be3b 75bd 4e50 1ebd
00000310: 1488 963d 411b 863d e36b bbbc c09a 2fbd
00000320: f268 9dbd bfaa 9bbd 8072 5abd dff2 423d
00000330: 7cfb c83d 01dc 39bd a014 04bd 9619 66bd
00000340: 95f1 fcbc 88db 4f3d d68f 033d 8727 553c
00000350: 7165 683d 0db2 0dbd 6905 91bc 594e e03c
00000360: 4803 6cbd 67c7 383d 070b 74bd 4cb3 3cbd
00000370: 0c9c 1d3c c0c9 bf3c 7749 513d 79ed 8abd
00000380: ebac 303d d2f6 99bc 5835 9a3c c6a7 583c
00000390: 4b3f a1bb fb38 5b3c 1763 83bb 3881 1d3d
000003a0: 977d 8fbd 181d be3c f2da 723c cfde fdbc
000003b0: 8cb3 9b3c 12e7 bf3d d5f8 633c 4604 a6bc
000003c0: ac12 92bd 7af7 293d 8905 0cbe 5a0a 3e3c
000003d0: 1079 b83d 7172 25be cfda a0bb d797 1ebd
000003e0: 74cb febd d221 16be 6fb7 8b3d 15ce 94bc
000003f0: 6c52 89bd b8a7 86bd 0e97 59bd ac75 f8bc
-0.046868507 0.011498636 -0.07099309 0.04263682 -0.043623388 -0.106969416 0.09010308 -0.00935638
0.12090999 0.034544777 -0.0028408405 0.003353072 -0.0036352633 -0.031481415 -0.160351 -0.042741675
0.09675901 0.035806686 -0.06312499 -0.05834077 -0.080523014 0.17605756 -0.09574573 0.037165165
-0.13340263 0.014936741 -0.00028115985 -0.16558093 -0.049343288 0.026075518 -0.13213511 0.08604647
0.025243547 0.10449128 -0.08247655 -0.07415571 0.09620641 0.11985078 -0.040597267 -0.05729613
0.037386373 -0.012495827 -0.021567786 0.016107557 -0.10244388 -0.08763604 -0.01886548 0.050014
0.00012967386 -0.020996235 -0.029574774 -0.028435072 -0.0035043955 -0.031558372 -0.010052775 -0.0060238764
0.06271875 0.023928892 0.043435942 -0.0078036613 -0.06377668 -0.07863746 -0.04583729 0.079199724
0.015898377 0.097758755 0.0636255 0.13771342 -0.07386708 -0.15642557 0.019001173 0.06435324
-0.02361545 -0.02887686 -0.006625776 0.0007025445 0.063645184 -0.058888514 0.037440296 0.02293526
-0.04086542 -0.038151402 -0.057566054 -0.079571806 -0.057642896 0.03159016 -0.022920651 -0.12034307
0.05436287 -0.045058787 -0.01933685 0.025201915 -0.07588342 0.024545157 -0.032167286 -0.08438105
-0.044011127 0.0488019 0.1319507 0.05726619 -0.0828345 -0.06706443 0.051723246 -0.00805758
-0.031784523 -0.04612905 0.02895076 0.049456142 0.08546243 -0.050024904 -0.05529535 0.055569716
-0.026850265 -0.0013495057 0.020477448 -0.08207781 -0.030636627 -0.11064281 -0.06639864 0.03090239
-0.0023761478 -0.02956974 0.09498846 -0.12282511 -0.025774796 0.03503948 -0.041974984 0.08489309
0.065694354 -0.0002395506 -0.10281838 0.03733514 0.05097741 -0.011144269 -0.059353296 -0.064533666
-0.082243785 -0.036593053 -0.039992195 -0.08778182 -0.10322091 -0.02669405 0.042593688 0.00948413
-0.14255536 -0.029335527 -0.028523697 0.015101052 0.064686716 -0.044881117 0.032158524 -0.034095425
0.00789862 -0.055884268 -0.09863731 0.058400586 -0.040655665 -0.0009220999 0.013456587 -0.07086774
-0.069410324 -0.049545772 -0.011173023 0.015944412 -0.039795876 -0.019956034 0.016684746 0.0526284
-0.042822324 -0.030976268 0.020210542 -0.07789681 0.025295591 0.006623083 0.014125338 -0.067221895
-0.020968465 -0.027745308 0.015410062 -0.04935742 0.0071340185 0.012405845 -0.052726597 0.03359463
-0.061637137 -0.030796273 -0.09941331 0.15282662 -0.09854014 0.023751004 -0.08668304 -0.033459023
-0.024655506 -0.017962828 -0.059871428 -0.038650803 0.073501736 0.06548167 -0.022878593 -0.04287219
-0.07686032 -0.076009266 -0.053331852 0.0475949 0.09813592 -0.045375828 -0.032246232 -0.056176744
-0.030876914 0.05074647 0.032119595 0.013009912 0.056737367 -0.03459363 -0.017702775 0.02738111
-0.057620317 0.04511204 -0.05958083 -0.04606943 0.009619724 0.023411632 0.051095452 -0.067835756
0.043133657 -0.01879445 0.018824264 0.013223594 -0.004920875 0.013380284 -0.004009615 0.03845331
-0.07006376 0.023207232 0.014822708 -0.030990032 0.019006513 0.09370245 0.013914307 -0.02026571
-0.07132468 0.041495778 -0.13673986 0.011599148 0.09007466 -0.16156937 -0.0049088965 -0.038719025
-0.12441149 -0.14661339 0.068220966 -0.018164674 -0.06705174 -0.065749586 -0.053122573 -0.030329548

bias_ih_l0 f4 [512]
00000000: 086b e13c 43fc cebd be34 093e bbdc 6c3d
00000010: 8e80 6dbd 5717 d93b 6c0d 9cbd 05d7 2f3e
00000020: de93 903d f1c1 333e 5cbf 09be 0597 b13d
00000030: f7fa bf3d cd60 ab3c 6330 34bc d8dd 463d
00000040: 0429 363e fafe 983d ee28 16bd ba63 163e
00000050: 1f28 96bd f097 30be 2305 073e 511c 5f3e
00000060: e509 cc3d 7a1d 9e3d e391 533d 5c7d 923e
00000070: 4091 c33d e9e1 1c3e ebb8 b33b 5f6c b63e
00000080: fe34 943d f2dc 2fbd ca99 113e 7f2d f73d
00000090: b268 cc3c eef5 983e 24a4 acbe 4cf9 113e
000000a0: 7ed0 8e3d 27ac 283e 4097 e53d 6074 c93b
000000b0: abe9 e43c 6a69 893e 9ae6 473c 8b51 543e
000000c0: 5349 113e db17 40bd 352f c83c ed9b be3e
000000d0: 71e5 263b 7a9c f73c 71ba 16bd 075b b23e
000000e0: de89 01be e70b 12bd bdc6 a8bc acd2 e73c
000000f0: 64c1 043f ca05 d33d a635 e33d 7aa7 cfbd
00000100: da1e ea3d 0755 9d3d 0b45 003d 4d8b e43c
00000110: 7885 99bd dda0 e63e b606 ca3e 30c0 853d
00000120: 3513 9c3e e769 0f3e f1a5 9cbd 8476 08bd
00000130: f1f0 eb3e dbb6 823e 4eb6 df3d 4d88 f63d
00000140: dec2 1ebc 4f9b c73d efe3 1b3e 0c0a c23d
00000150: 8917 0a3e 4cef 0b3e 1ef7 43bd 94da f93d
00000160: 682f b93d 4070 493d d7c7 52ba b90d 753d
00000170: 0717 a53d ace7 f43d 312d 65bd 1c88 ae3e
00000180: c500 403e 74c8 16be 275d 9b3e 4186 efbc
00000190: 829f b13c 6964 f33d 0e69 c93c 0a9c f63b
000001a0: 7287 933e 33b1 48be ab8c 353c d50b 913d
000001b0: 048e b7bc 05f3 49bd 6506 ea3d d372 d93c
000001c0: d243 c8bc a3a6 003e 59ae 9dbd bbe4 de3d
000001d0: e3a2 983d 49e3 863c fd57 923d 14c5 8a3d
000001e0: 42b2 df3e 37d2 27bd 8561 e23e 06c8 163e
000001f0: 525c bc3d 70c5 2a3c 8224 dd3e 626d 163e
00000200: ff08 b7bb b89b d63e 64a3 4dbd 669a e93d
00000210: 1847 c03d 4e19 d63d e5b4 ec3a 4aba 803d
00000220: 02ef c73d 3ef0 463e ff49 923e 08e1 85b9
00000230: 88c3 5bbd cadc 623e 9608 fc3d c4df a4bd
00000240: 1b8d 32be 7aa2 cb3d e372 233d 9b10 b13d
00000250: 8000 e03c 39cc a63d a911 b53b 0665 803e
00000260: 0ec1 573b ad52 493e a80f 6a3e 7fdd b0bc
00000270: a05b 6c3d 3ef7 c6bb 4e5c 563b 45f5 e9bd
00000280: 7be4 983e dfed 3f3e 10c4 113b 6217 473e
00000290: 110c e23c f1ee ca3d 88ff e83e 2618 29bd
000002a0: 399e 66bd 8ef1 d73d 42fa cd3c d2dd 273e
000002b0: cd35 1f3e f1e0 bfbd 7ba6 c33d e2a8 b13d
000002c0: cf87 423e f546 093e 6c7b 803d 46aa 29be
000002d0: 86ae d73d 6ed0 453e d086 423e 1e08 e5bd
000002e0: 3162 84bd b632 803d dad2 e43d 5cf6 093e
000002f0: 21f6 cbbd 76f0 813e 4450 04bd f377 ea3d
00000300: f2d7 9e3e 39c5 393c 1858 e93c aac7 abbd
00000310: 8b97 fd3d 2377 39be 3f23 62be 721c a83d
00000320: 6d80 c8bd d9ce 2a3e 2a31 1b3e aab5 4d3e
00000330: 4fc3 e6bd 1620 003d ad89 893e eae0 8e3e
00000340: ffd9 e0bc bef4 42bb 1e57 c43d 5288 613e
00000350: 1515 28bd 4e36 133e 7a66 fabc aa3b 9a3d
00000360: 8411 753e fe6b 59bd c55f 3b3e 91ec 2fbe
00000370: b72d 4a3e 92db 2c3e df71 d53d 4fa0 92bd
00000380: ec04 07bd e541 8e3d a566 cbbc cfa7 8dbd
00000390: 21ff 7c3c 5bc6 113e 6e46 13bc 75f7 a63c
000003a0: 10e0 1cbd 275d a73d 21d1 4b3d 186d 273d
000003b0: 1be1 04bd f31e 9b3d ea18 4d3e 5c8f 1e3e
000003c0: ff7a 353d 25ce 793d 0e0d 533d 0376 293e
000003d0: 37a1 07bd 664d 39bd df22 573e ff47 403e
000003e0: 8475 34be f440 483d 1148 acbd 7b90 a1bd
000003f0: 22d0 663d 2931 653d 95a6 65be 20db 5c3b
0.027516857 -0.10106709 0.13399026 0.057827692 -0.057983927 0.006625097 -0.076197475 0.17171867
0.070594534 0.17554452 -0.13451904 0.08671383 0.093740396 0.020920182 -0.010997864 0.04855141
0.17789084 0.07470508 -0.036660127 0.1468648 -0.07331871 -0.1724546 0.13185553 0.21788146
0.09962825 0.07720466 0.0516528 0.28611267 0.095491886 0.15320553 0.0054846904 0.35629556
0.0723667 -0.04293532 0.14218822 0.120692246 0.024952266 0.2987513 -0.3371898 0.14255255
0.069733605 0.16471921 0.11210489 0.006147906 0.027943453 0.26838237 0.012200976 0.20734231
0.14188127 -0.04689775 0.024436573 0.37228337 0.0025466348 0.030225981 -0.036798898 0.34835073
-0.12650248 -0.035655882 -0.020602578 0.028298698 0.5185759 0.103038386 0.11094217 -0.101393655
0.11431666 0.07682233 0.031315845 0.027898455 -0.0749616 0.45044604 0.39458245 0.065307975
0.30483404 0.14005242 -0.07648838 -0.03331615 0.4608226 0.25530133 0.10923444 0.12037716
-0.009690015 0.0974642 0.15223669 0.094745725 0.1348554 0.13665503 -0.04784309 0.121998936
0.09042245 0.049179316 -0.0008040643 0.05982754 0.08061033 0.119582504 -0.0559513 0.34088218
0.18750294 -0.14724904 0.30344507 -0.029238822 0.021682505 0.11884386 0.024586227 0.0075259255
0.28814274 -0.19598846 0.011080901 0.07082335 -0.022406586 -0.049304027 0.11427001 0.02654401
-0.024446402 0.12563567 -0.0769927 0.108834706 0.07452943 0.0164658 0.07145689 0.06775871
0.43690687 -0.04097196 0.44215026 0.1472474 0.09197296 0.010423049 0.43191916 0.14690164
-0.005585789 0.4191568 -0.05020465 0.11406402 0.0938856 0.10454045 0.0018059282 0.06285532
0.09762384 0.19427583 0.2857208 -0.00025535398 -0.05365327 0.22154537 0.12306325 -0.080504924
-0.1743664 0.09943099 0.039904486 0.08645745 0.027343988 0.08144421 0.005525787 0.25077075
0.0032921466 0.19660445 0.22857535 -0.021589993 0.057704568 -0.006071954 0.0032708826 -0.114237346
0.29861817 0.18743084 0.0022242106 0.19442514 0.027593644 0.09908856 0.45507455 -0.041282795
-0.056303237 0.1054412 0.025143746 0.16393211 0.15547867 -0.09369076 0.09553238 0.0867479
0.1899712 0.13405974 0.06273541 -0.1656886 0.105313346 0.19317791 0.1899674 -0.11183189
-0.06464041 0.06259672 0.11173029 0.13472885 -0.09959055 0.2537877 -0.03230311 0.1144866
0.31024128 0.011338525 0.02848439 -0.08387692 0.1238242 -0.18111853 -0.22083758 0.082085505
-0.0979012 0.16680469 0.15155473 0.2008883 -0.11267721 0.0312806 0.2686285 0.2790597
-0.027447699 -0.0029747928 0.09586929 0.22024658 -0.04103573 0.14376184 -0.030566443 0.07530911
0.23932463 -0.053081505 0.18298252 -0.17180087 0.19744001 0.16880634 0.1042211 -0.07159483
-0.03296368 0.06946162 -0.024829218 -0.069167726 0.015441687 0.14235823 -0.00898896 0.020381669
-0.03829962 0.08172064 0.049759988 0.040875524 -0.03244124 0.075742625 0.20029035 0.15484375
0.04430675 0.06098761 0.05152612 0.16548924 -0.03311273 -0.04523983 0.21009396 0.18777464
-0.17622954 0.04889007 -0.08412183 -0.078888856 0.056350835 0.055955086 -0.22426827 0.0033699945

bias_hh_l0 f4 [512]
00000000: 59dd 0b3c 0e04 f7bd a6e1 343e 81bb 943c
00000010: 519c ffbd 3de2 1bbb 4e23 44bd 54aa 303e
00000020: 1610 c43d 67da 323e 133b 22be a001 163d
00000030: 930a aa3d 10d3 5b3c 71a2 f6bc e0c7 ac3d
00000040: 1e70 1c3e a622 2dbd becd 1cbe 26db 143e
00000050: d8c0 93bb cd2b 1bbe c882 ff3d e7ee 4c3e
00000060: ac25 393e 5b78 ac3d d9d5 163d 9d39 753e
00000070: bea3 8d3d 9075 3e3e 27e8 6c3d 3b5b aa3e
00000080: 029d 8e3d 4105 f5bd c108 343e a7ed eb3d
00000090: 6e98 303d ace8 a73e 27c0 a1be 8f0b a33d
000000a0: 0eb0 b23d 7975 2d3e 126e e33d 61c3 d7bc
000000b0: db2e 9c3c 2f16 683e 47c5 89bd 2e1e 513e
000000c0: 1ec1 113e 36b4 04bd e10d cfbd e889 e73e
000000d0: 673e 403d a054 0dbd a2fb e7bd 6a7a bb3e
000000e0: ff71 1bbe a854 a3bd 6124 b1bc 2d48 e63c
000000f0: 5933 e93e 6541 b03d 7fc0 c73d edaa 10be
00000100: 4331 ef3d b9e2 773d a335 913d 5b60 743d
00000110: e51e fdbd 4550 d03e b3c1 cb3e 23b5 c4bc
00000120: d8de 963e ddd2 063e 4845 42bd 0b8c fdbc
00000130: c71c ce3e a4c4 a13e 98bf cf3d 2092 e53d
00000140: 1ac9 b6bc ab59 b23d 5a7b dd3d c8ac a43d
00000150: cf4c 153e a102 f93d 213f 43bd 7f6b 563d
00000160: a3a8 c73d 3fee b53c b82a 07bd fdf6 733d
00000170: 2b0c a73d 6ff0 fd3d dde9 febd 0a49 843e
00000180: 4c61 f13d cd54 8fbd a4fa 903e c681 7a3d
00000190: 8902 d63c 3644 fa3d 8ac3 7bbc 59d4 563b
000001a0: 1b35 8d3e 4e90 08be 3dca b63c 6e2a 3c3d
000001b0: 2250 7b3b 1706 443d 6f16 023e 18d8 393d
000001c0: 6484 b93c c71d a03d 273c 93bd 68c5 e23d
000001d0: de58 123e 939f 2f3d 288f b13d 2cc6 9b3d
000001e0: 2ae8 c83e d2a4 523c 2fb8 ee3e b461 153e
000001f0: 14c1 ed3d bbc6 5d3d 0c09 d43e de88 583e
00000200: afa2 7a3d 3d3e a93e f320 8a3d 111e 8c3d
00000210: 3268 d13c 2e23 0b3e e80d 063d 81d7 b83d
00000220: a309 f83d 9d36 513e cdbd 9b3e f0de 0abd
00000230: cb2b 92bd 7f46 753e 467f 2e3e a502 a3bc
00000240: 4ccc 1fbe 69da 0c3d 7f90 7a3d b85a fb3d
00000250: 4940 193d 23ea d43d 73d7 23bd 80c6 863e
00000260: 5e7c 9d3d d472 e03d 008d 603e cb9d 5fbd
00000270: a3f5 b7bc 60b2 7b3d 39f5 553d 206e 0ebe
00000280: 03d3 923e b49c f23d 7ce2 17bd 0e8e 773e
00000290: c443 173b 80de dbbc a4ac e13e faae 803d
000002a0: 37b7 19bc b78d 273e 0cbc 883d eb13 733e
000002b0: 1eeb 433e 35af 51be ae63 e13d baa4 eb3d
000002c0: bbd4 443e 0da5 db3d 324d c93d 2e62 efbd
000002d0: 41e7 d33d 1a17 223e 65e3 3f3d fc43 2ebe
000002e0: dd07 57bd 33b3 113e 3d82 113d ba07 9b3d
000002f0: 5e8a 23bd 6987 503e 7c24 55bd 6d18 9d3d
00000300: ba0a 963e 3bdb 003d d428 4d3d c8c9 85bd
00000310: 94ba 083e 05af 35be ff8c 59be d53d 873d
00000320: 6355 81bd f923 e43d 8e26 3f3d 1a9b e83d
00000330: ac67 e7bd 0e90 8fbc 2d91 903e abde a33e
00000340: 19ab 85ba 3366 953c e33e 1f3e e36c 4b3e
00000350: 689f 81bc ae4c 313e 71f7 093d 0785 cb3d
00000360: c83e 8a3e 6bb6 86bd 73e7 c23d fd36 16be
00000370: 4179 433e 1c3c 233e 3b4c 8e3d ab54 01be
00000380: 4abc e5bd 883c 823d 950d 00be 2243 77bd
00000390: e967 813c c5fd bb3d 14e9 38bd e14d 8e3c
000003a0: d617 54bd e95d b33d 52fd 643d 2d5e b63d
000003b0: 1ea7 0d3d bafd 923d 0caf 0e3e 0c86 f23d
000003c0: 36cb 823d 1003 e23c e942 a23d 781e 503e
000003d0: c5be a5bc 57c8 c5bc 24f3 4b3e 0ff9 203e
000003e0: b33e 60be c749 c13b 73d6 0ebd d41f 94bc
000003f0: 80ce 3cbc ddf5 933c 796a 3fbe d3a4 44bd
0.00853666 -0.1206132 0.17664203 0.018155815 -0.12480987 -0.0023785972 -0.04788523 0.17252475
0.09573381 0.17466126 -0.15842848 0.036622643 0.08302798 0.01341702 -0.030106755 0.08436561
0.15277144 -0.04226937 -0.1531286 0.14536723 -0.0045090728 -0.15153427 0.124761164 0.20013009
0.18080777 0.084213935 0.036825035 0.23947759 0.06915997 0.18599534 0.057838585 0.33272728
0.069635406 -0.11963893 0.17581464 0.11519938 0.04311412 0.32794702 -0.31591913 0.07961189
0.08724986 0.16939344 0.111049786 -0.026338281 0.019065311 0.22664712 -0.06727081 0.20421669
0.14233825 -0.032398425 -0.10110069 0.45222402 0.04693451 -0.034504533 -0.11327292 0.36616832
-0.15180205 -0.07975131 -0.021623792 0.028110588 0.45546988 0.08606223 0.097535126 -0.14127703
0.11679318 0.060518954 0.070903085 0.059662204 -0.12359408 0.4068624 0.39796218 -0.024012154
0.2946689 0.13166375 -0.047429353 -0.030950567 0.4025633 0.31595337 0.101439655 0.11209512
-0.02231269 0.08708509 0.10814543 0.08040768 0.14580081 0.121587045 -0.047667626 0.05234861
0.09748962 0.022208331 -0.032999724 0.05956172 0.08156618 0.12399375 -0.1244695 0.25836974
0.11786136 -0.06998596 0.28316224 0.061158918 0.026124256 0.122200415 -0.015366444 0.0032780378
0.2757958 -0.13336298 0.022313232 0.0459389 0.0038347323 0.04785737 0.1270387 0.0453721
0.022646137 0.078181796 -0.071892075 0.110728085 0.14291713 0.04287679 0.08669883 0.07606158
0.39239627 0.012856679 0.46624896 0.14588052 0.11609092 0.054144602 0.41413152 0.2114596
0.061190303 0.33055297 0.06744566 0.06841672 0.02556238 0.13587639 0.032728106 0.09025479
0.12111213 0.2043099 0.30418244 -0.033904016 -0.07137259 0.23952673 0.17040738 -0.019898722
-0.15605277 0.03438798 0.06117296 0.122731626 0.037414823 0.103962205 -0.04000039 0.26323318
0.07689737 0.10959402 0.21928787 -0.054593842 -0.022455996 0.06144941 0.052235816 -0.13909197
0.28676614 0.11846295 -0.037081227 0.24175283 0.0023081163 -0.026839495 0.44077027 0.06283374
-0.009382061 0.16362654 0.06676492 0.23738067 0.19132659 -0.20476992 0.110053405 0.115060285
0.19221775 0.1072484 0.09829177 -0.11688648 0.103468426 0.15829125 0.04684772 -0.17018121
-0.052497733 0.14228515 0.035524596 0.07569833 -0.03992688 0.20364155 -0.052036747 0.076706745
0.2930506 0.031459074 0.050087765 -0.06532627 0.13352424 -0.17742546 -0.21245192 0.066035904
-0.06315114 0.11139674 0.046667628 0.11357708 -0.11299071 -0.017524745 0.2823576 0.3200582
-0.0010198086 0.018237209 0.15551333 0.19865756 -0.015823081 0.17314407 0.033683244 0.09937482
0.27001023 -0.06577762 0.09516802 -0.14669414 0.19089223 0.15940899 0.069481336 -0.12629955
-0.11217554 0.06359202 -0.12505181 -0.060366757 0.015796619 0.09179262 -0.045144156 0.01737112
-0.051780544 0.08758146 0.055905648 0.08904681 0.034583203 0.07177301 0.13933963 0.11841974
0.06386416 0.027589351 0.07922918 0.20324123 -0.020232568 -0.024143381 0.1991697 0.15720008
-0.21898918 0.0058986875 -0.034872483 -0.018081583 -0.011523843 0.018061573 -0.1869296 -0.04800875

weight_ih_l1 f4 [512, 128]
00000000: a9a1 77bd b5f6 693d 25cf a73d b38c 9d3b
00000010: e1ce 5ebd 593c c5bc 09a7 c63c 6842 b1bd
00000020: 0cf8 3ebc 4379 96bb 5741 11bd 0059 4cbb
00000030: 6962 bf3c 581d 263d 3946 96bd b3a3 09bd
00000040: f18c c0bd 1110 e2bd 1181 37bc 429f 42bb
00000050: 45ae f7bc 21bd 4abd f518 b4bd ea9e 14bd
00000060: f204 033e 2830 f1bd 8f3c af3c ec22 273d
00000070: c49d 5abb 49c0 513d 9f83 9bbd 11d3 69be
00000080: c2b9 103c 7c44 d43d 7075 fc3c 6497 fa3b
00000090: 9625 133c f971 2c3d fb8a ab3d 4082 bc3d
000000a0: 0154 0bbd 40cf bebc f992 01bd 2315 16bd
000000b0: 18c7 da3d 07b5 91bc 299d 303d fdfe 31bd
000000c0: cf31 a6bb 815f ed3c 0930 52bc 42e5 ef3d
000000d0: f218 c0bd 9f02 313b 0de0 823e 8b00 433e
000000e0: b04d 833d d861 e23c 3cba 9fbd 64f7 e5bd
000000f0: 822b 8ebb dc9a 073c 6a38 143e 342b d6bc
00000100: b83d 7bbb 926f 3e3c 9fde d3bc 68b9 c6bd
00000110: eb53 4d3e 3cc4 25bd d7b4 ee3a 6105 31bd
00000120: d7fe 05be 18e7 823c 8c9d 003c 3ad3 72bd
00000130: 25af 3dbe 18aa 36bc 3baf 0d3c 6ca6 143c
00000140: f2ae 5f3c 25f6 28be 23e9 513b 752a 103c
00000150: c20e 053e 5419 a53c d901 5ebd 069c 883c
00000160: 5dff fd3a 82e8 893c f530 6ebd 3442 b5bc
00000170: e652 7a39 5a83 1ebe 4912 ebbd ac57 913c
00000180: 5da2 67bd 87c2 1dbd 6f38 09be 8663 ccbd
00000190: a1dc 583c 7e92 9e3a 5e2a 19bd 2499 ca3c
000001a0: 22bc 113e 1ba1 11bd e8cc 01be 3831 be3d
000001b0: 3c72 083d 781a 9fbd 8e5b 70bc a15e cabd
000001c0: 08c9 153e e658 bcbd 9a3a 93bd 422e aebc
000001d0: fb98 7e3c 1902 b73d 2893 edbb 1761 b33c
000001e0: cc14 433c 1d1a 523d 42cb 3bbe 0c44 733d
000001f0: 2a26 ac3d 5c5b 05bd 70ce a23d c1e7 d83c
00000200: 69a3 883d ac62 1fbc 063d 143d a183 6dbd
00000210: 5dfd ab3c 8ee9 7f3d d2fe 2c3e 9d21 65be
00000220: 6b2b 02bd 1a99 e13c 837a 973d c0d4 7f3d
00000230: cf95 b2bb f086 2e3e 1c8f e1bd b14e 4dbe
00000240: afba 8f3e a7fb aa3d efda c23d 76dc e73b
00000250: 6fce a13a 7679 bf3d c8ee 6cbe 2e44 ff3c
00000260: e2f5 7dbd 2396 a0bd 1b37 08bd 95d3 a63a
00000270: e4c1 393e b60c 15bd cf90 07be 6161 0d3d
00000280: 8771 f3bc c24b 07bd 1553 b13d 1b44 8e3c
00000290: 7b0b e0bd 6609 2b3e 58e5 b1bc a65f 3e3e
000002a0: 8b6c 9d3d 29ac 66bd 2d1c 6cbd efce 84be
000002b0: 5fcc adbd 825c 05be 4443 86bb 7db0 99bc
000002c0: a9be 923b 9ae9 9d3c 0f82 383e 3d7a c53d
000002d0: a81e c4bd 32ac d8ba 1332 d83b a131 3e3e
000002e0: e922 32be 8fc3 4cbc 7fb6 003e 1bfd 1f3d
000002f0: f85f 903e 012c 0b3b ac0a 343e fdd6 3fbc
00000300: d23a ba3c 6355 cebd 25eb 0dbe 5fea 4d3c
00000310: 90d3 03be 09c9 d33c 2e7c 0ebb df20 4dbe
00000320: 8e99 07be 9295 06be b12b 92bd 05c8 713c
00000330: 7c10 4fbe 4670 4c3e 9a3a ceba be8b 653c
00000340: 0a07 69bd fe68 4d3e ca01 1bbc 7d6a e73b
00000350: c46a dd3d b185 a43b 656f 3a3e 74a1 4bbe
00000360: adde 71bb fafb 4f3e 3ed4 debd 6af9 d7bc
00000370: 7819 0f3c f10c ecbd f249 81bc f1ca b1bd
00000380: 327f e93d ab40 9c3c 8d55 7bbe f1e8 ee3d
00000390: 157a f43c 1222 c53c 9cbb a7be 72e7 a7bc
000003a0: 837e 893e 61d1 13bd c6bf 09be 9bab 873d
000003b0: ab51 423c 21f7 cabe 39ab a6bb e157 4abe
000003c0: 2f92 1abe b55f ffbd 8a4c c5bd e052 95bc
000003d0: 9548 7bbd 77bd aa3d 26ec bb3d a717 213c
000003e0: aa42 58be 246a d53d ba2f c0bd a88f 8bbe
000003f0: dc7e 9c3e d15d 4b3b a730 0a3e 7a58 dd3c
-0.060456906 0.057120044 0.081938066 0.0048080324 -0.054396514 -0.024076628 0.02424957 -0.08655244
-0.011655819 -0.0045920922 -0.035462704 -0.0031180978 0.023362355 0.040555328 -0.07337613 -0.03360338
-0.094018824 -0.11038221 -0.011200205 -0.0029696976 -0.030234465 -0.049496774 -0.08793823 -0.036284365
0.12794855 -0.11776763 0.021391181 0.04080479 -0.0033358196 0.051208768 -0.07593464 -0.22834422
0.008833351 0.10364625 0.030817717 0.0076474417 0.008981129 0.04210088 0.08376118 0.09204531
-0.03401566 -0.023292184 -0.031634305 -0.03664125 0.10682505 -0.017786516 0.04311863 -0.043456066
-0.0050718556 0.028976204 -0.012828835 0.11713649 -0.09379758 0.002700962 0.25561562 0.19043176
0.06411302 0.027634546 -0.07799193 -0.11228827 -0.0043386826 0.008276667 0.14474645 -0.026143648
-0.0038336348 0.01162328 -0.02586299 -0.09703332 0.20051543 -0.040470347 0.0018211853 -0.04321802
-0.13085495 0.015979335 0.007850062 -0.059283473 -0.18523844 -0.011148952 0.008647735 0.009072881
0.01365255 -0.16500147 0.003202983 0.008799185 0.12993911 0.020153679 -0.05420098 0.01667596
0.0019378472 0.016834501 -0.058152158 -0.022126295 0.0002387274 -0.15479794 -0.11478097 0.017742
-0.056551326 -0.038515594 -0.13400434 -0.0997992 0.013236196 0.0012098101 -0.03739392 0.024731226
0.14231923 -0.035554033 -0.12675822 0.092867315 0.033312067 -0.077687204 -0.014670266 -0.0988133
0.14627469 -0.091966435 -0.07188912 -0.021262292 0.015539403 0.08935947 -0.0072502084 0.021896882
0.011906814 0.051294435 -0.18339255 0.059391066 0.08405717 -0.03255783 0.07949531 0.026477696
0.06671793 -0.009728115 0.03619101 -0.05798686 0.020994836 0.062478594 0.16894081 -0.22376104
-0.031779688 0.027538825 0.07396414 0.062458754 -0.0054499875 0.17043662 -0.11013624 -0.2004955
0.28072116 0.0834878 0.095144145 0.0070758415 0.0012344847 0.09349339 -0.23137963 0.03116044
-0.06200207 -0.07841136 -0.033255678 0.0012727851 0.1814037 -0.036389075 -0.13238834 0.034516696
-0.02971722 -0.033031233 0.08658425 0.01736646 -0.1093969 0.16702804 -0.021715805 0.18591174
0.076867186 -0.05631653 -0.057644058 -0.25939128 -0.08486246 -0.1302357 -0.004097374 -0.018760914
0.004478295 0.019276429 0.18018363 0.09642456 -0.0957616 -0.001653081 0.006597766 0.1857362
-0.1739613 -0.012497797 0.12569617 0.03905974 0.28198218 0.0021235945 0.17582196 -0.011708972
0.022733126 -0.1007488 -0.13859232 0.012568085 -0.12873673 0.025852697 -0.0021741497 -0.2003207
-0.1324217 -0.13142994 -0.0713724 0.014757161 -0.20221132 0.19964704 -0.0015734017 0.014010368
-0.05689148 0.20059583 -0.009460876 0.007062255 0.108113796 0.00502082 0.18206556 -0.19885808
-0.0036906407 0.20310965 -0.10880326 -0.026364047 0.0087341 -0.11525906 -0.01578233 -0.08681286
0.11401214 0.019073805 -0.24544354 0.11665524 0.02984337 0.024064098 -0.32760322 -0.020496104
0.26854333 -0.03608835 -0.13452062 0.06624528 0.0118602915 -0.3964167 -0.0050863293 -0.19760086
-0.15094827 -0.124694265 -0.09633739 -0.018227994 -0.061348516 0.08336919 0.09175901 0.009832299
-0.2111918 0.10420635 -0.09384103 -0.2725804 0.30565536 0.003103126 0.13495122 0.027019728

weight_hh_l1 f4 [512, 128]
00000000: 68a0 c8bd 9bd5 c8bc 7f7a 813d f86a bb3c
00000010: 0e12 aebc 540f 07bd d750 58be 7706 253c
00000020: a89d 623d 6f9b b1bb ad4b 42bd 83a4 823c
00000030: a522 84bd e99b 8e3e 1d25 a2bd 4d39 29be
00000040: 8e36 523c 95f5 68be f7ed 173d f2e9 293e
00000050: 6ca7 263e ff24 06bf 574d 8abd 0167 a23d
00000060: b080 853d 9a33 153c 9be1 703d a2da c9bd
00000070: c279 973c 0b62 d5bd 5faf 2bb9 d0b1 15be
00000080: 9ee1 1a3d 9894 153e 0edf 15be afb5 28be
00000090: f7a8 9abc 0bfd 0f3c 3774 5b3e 603e 7f3d
000000a0: 76e7 523d 42cb 293d 97d4 73bd 6312 e6bc
000000b0: b369 21be 40bc e63d 8770 9dbc 5660 89be
000000c0: 2c02 0c3e e8bd 66bd 0529 173c 9cf0 78bd
000000d0: e841 323e 7666 22bc cd53 c13d 0e83 b53d
000000e0: edfa 8abd 542f 143e fd37 17bc 62f5 47bd
000000f0: 3cda c83c 9de2 793d a59f 963d af92 60bd
00000100: 4aa0 873d 55a0 773d 9bdd a83c 53d3 9e3d
00000110: de21 9f3c fc28 f33b e5af 853d b197 15be
00000120: 79fd 8b3c 793b 9fbd 477a 123d 464b 913a
00000130: bc4a 2a3e 2118 aebd 7f84 dcbd ec50 ed3d
00000140: 9e8a de3d a862 013e a60f a1bd b754 613d
00000150: e52a ab3d f9b5 08bd 2151 3fbe 118b 8c3d
00000160: d41b 09be f376 a6bd d213 04be 3717 3e3e
00000170: cca3 81bc dabd a13d 77a5 043e 8ad1 1c3e
00000180: 574b 053e bce7 1b3c 831b 3d3e c7b7 17be
00000190: 6e97 ff3c 1a44 9e3d ac7a 89bd c735 503d
000001a0: b5e5 8fbd b7cc a5bb d1f1 73bd a569 8abd
000001b0: 5566 25bd 1f42 a93c 0296 953d c275 ba3d
000001c0: 89b9 b43d 3a4a bebc 4e68 20be e36f 3a3e
000001d0: 61ab 42be ead8 073c 1361 12bd fb49 da3a
000001e0: 3eb4 51bd 2349 a2bd 43ea 8bbc 0de2 533d
000001f0: fef5 a5bd e578 01be 313f d63d 8236 8b3d
00000200: 8994 583e 7b07 45bd 03db 2a3e 61be b5bc
00000210: 5cce 343d 2929 eb3d 2dd3 2a3e c5aa 5b3d
00000220: daf1 25be cd2b 2f3d c421 243e d35e 0e3e
00000230: 16fb 04bf 3f21 86bd 798a 56be 89da 4a3f
00000240: e17e ba3c 8b66 ad3d 8f43 833d b9cd 533e
00000250: a9eb 0f3e 8fab 633d d030 9bbe 0aa7 1abd
00000260: 86cb bf3d 8134 53be cca0 7d3e 5e74 33be
00000270: 90ba e2bc 5ede b3be a50f 58bd 16f7 723d
00000280: 3d76 24bd 9835 183e ab7c 58be 462f 9d39
00000290: ce5b a8bc 799f 3dbd e9d7 e73c 2162 b23c
000002a0: 3acd be3e 4045 993d c84d 04be c064 8abe
000002b0: 7dda 9bbd 0f12 09be 9367 023e c784 873c
000002c0: 34b7 2d3c f51a c23d 4f42 0bbe d654 e83d
000002d0: a582 c33e 83a2 343e 7380 8e3e 2585 383e
000002e0: 711d 5e3e 1640 243e 145a 70be 630a 0e3c
000002f0: 07a2 953d 0dd9 713e efc3 073e 88ef 013d
00000300: ff19 8bbe a1ba 15bd 73b0 e73d 8592 9ebc
00000310: 1620 bc3e 8c1b a63e 71e3 7c3c 7f1f 5bbe
00000320: 79d1 e5bd 4699 f3bd 4735 88bd 24ac 6abd
00000330: a621 02be 54c3 95be fe0b 213d ea0f 27be
00000340: 381f 4ebc d8e2 4abd 09e7 5ebe 2b63 013d
00000350: 33ca b73b db96 9b3e 93e8 c53d 926b 963d
00000360: 8c07 263e 0551 d33d a414 4c3e b210 0fbc
00000370: e926 653e 75e2 283e 640d 053f 786d f43b
00000380: ea1d 0dbd 7395 82be 3ecc 12be dfab 19be
00000390: 7cc3 263d 2fce 0c3d ca2a 22be 47be 133f
000003a0: ba1c 2bbe 31b4 193d 43fc 083e 8ea2 d6bc
000003b0: f8ec babc b970 3dbe a854 48be f292 5e3b
000003c0: b8d7 c53e 2232 8abd f6bd 9f3d 11c2 73be
000003d0: 560b bd3d 7eaf 213e 43c9 273e 3934 573e
000003e0: 047c a4bc 852c b4be 3fdc 5f3d a40b 813d
000003f0: 8555 3fbe d901 1cbe 5f1d 0abd 583f 0ebd
-0.0979622 -0.024515918 0.063221924 0.022878155 -0.021248844 -0.032973602 -0.21124588 0.010072342
0.055326134 -0.0054201405 -0.04743545 0.015947586 -0.064519204 0.27853325 -0.07917235 -0.16525765
0.01283039 -0.22749932 0.037092175 0.1659315 0.16274804 -0.524002 -0.06753033 0.07929803
0.06518686 0.009106541 0.058808904 -0.09856154 0.018490676 -0.10419091 -0.00016373162 -0.14618611
0.03781282 0.14607465 -0.1463587 -0.16475557 -0.018879397 0.0087883575 0.21431051 0.062315345
0.05149027 0.041453607 -0.059528913 -0.02808494 -0.15762977 0.112663746 -0.019218696 -0.2683131
0.13672704 -0.056333452 0.009226088 -0.060776338 0.17407954 -0.009912124 0.09439812 0.08862887
-0.067861415 0.14471179 -0.009229657 -0.048818 0.024518125 0.06100713 0.073546685 -0.05482739
0.066223696 0.06045564 0.020613482 0.07755151 0.019425329 0.007420657 0.0652769 -0.14608647
0.017088639 -0.077750154 0.035761144 0.0011085055 0.16630071 -0.08500696 -0.10767459 0.115877
0.10866283 0.1263529 -0.07864313 0.05501243 0.08357791 -0.033376668 -0.18683292 0.06862462
-0.13389522 -0.081281565 -0.12898186 0.18563543 -0.015825175 0.078975394 0.12953745 0.15314308
0.13017021 0.009515699 0.18467526 -0.14816199 0.031200137 0.07727833 -0.06712851 0.050832536
-0.07026235 -0.0050598043 -0.059556786 -0.06758431 -0.040380795 0.020661412 0.07304002 0.09104492
0.088244505 -0.023228753 -0.15664789 0.18206744 -0.19010688 0.008291462 -0.03573711 0.0016654128
-0.051197283 -0.07924106 -0.017079478 0.05172925 -0.0810356 -0.12643774 0.104612716 0.06797506
0.21150412 -0.048102837 0.16685109 -0.022185506 0.044142112 0.1148246 0.1668212 0.053629655
-0.1620554 0.04276638 0.16028506 0.1390336 -0.51945627 -0.0654931 -0.2095126 0.7923971
0.022765579 0.08466824 0.0640937 0.20683946 0.14054741 0.055583533 -0.30310678 -0.037756957
0.09364991 -0.20625497 0.2476837 -0.1752486 -0.02767685 -0.3513059 -0.052749295 0.05931767
-0.040151823 0.14864194 -0.21141307 0.00029980595 -0.020551588 -0.046294663 0.028301196 0.021775307
0.3726595 0.074839115 -0.12920296 -0.2702999 -0.07610033 -0.13385795 0.12734823 0.016542805
0.010602761 0.09477798 -0.13599513 0.11344306 0.3818561 0.17640118 0.27832374 0.1801954
0.21690919 0.16040072 -0.23471862 0.008669469 0.07306295 0.23617955 0.13258336 0.031722575
-0.2716827 -0.036554936 0.11312952 -0.019356975 0.3674323 0.32442892 0.015435086 -0.21398734
-0.11221594 -0.11894469 -0.06650787 -0.057293072 -0.12708148 -0.29250586 0.039318077 -0.16314664
-0.012580685 -0.04953274 -0.2176782 0.031588715 0.005608821 0.3038853 0.09663501 0.07344736
0.16213816 0.103181876 0.19929749 -0.008732008 0.22378124 0.16492637 0.5197356 0.0074593388
-0.034452356 -0.25504646 -0.14335725 -0.1500697 0.040713772 0.03437632 -0.15836635 0.57712215
-0.16710177 0.03752536 0.1337748 -0.026200559 -0.022818074 -0.18500032 -0.19563544 0.0033962098
0.38641143 -0.06747843 0.07799904 -0.23804499 0.09230678 0.15789601 0.16385369 0.21016015
-0.020078667 -0.35190216 0.054653402 0.063010484 -0.18684967 -0.1523508 -0.033719417 -0.034728378

bias_ih_l1 f4 [512]
00000000: 5bcb b4bd cc08 fabd 945d 173d a0fc 98bd
00000010: ecaa 02be bf7d 2f3c b01b 41bd b59e fe3c
00000020: 7f1b 2e3d ac87 40be 58ab 1abd 5336 d53d
00000030: 5cfa c0bc 7839 8cbe c0a9 7fbc d315 52bd
00000040: 7820 40be d4a8 9ebb 8717 ce3c 1938 8ebd
00000050: 1f0a bcbd 2f4d 74be 0531 0a3d b3e8 47bd
00000060: b86a 9d3c 0f82 24bd a109 8d3b 50e7 4ebb
00000070: 4d2a 113c 7200 df3c 65c1 2fbe 811c ecbc
00000080: f0fa 21bd e2df a3bd b151 e3bd 2e31 a1bd
00000090: d20a 593d 2ae7 8ebd 5034 c93c 90e8 6e38
000000a0: a2c5 fcbc 5daf cb3d 0073 243c 5705 2fba
000000b0: 3627 243c 0038 0ebd 36bd edbc 522d 50be
000000c0: ff4a 95be e902 073d bb44 ffbb 0f49 85be
000000d0: c32d 053d e9f5 52be 0e70 ae39 0516 603d
000000e0: dcc1 b4bd 8ade f4bd 22ce 443d 2c5f bcbc
000000f0: 5423 3bbc 981d b7bc 4c27 abbb 2282 cb3b
00000100: 31f5 9339 4cbd e0bd 1331 983d 8412 9dbe
00000110: 1bfc e23d bdc9 7ebe db0a 88bb 58af 7bbe
00000120: 4044 403d 9a24 12be e662 633c b20d cfbc
00000130: 9b1a 3bbe 7766 1d3d 0149 383d 33df 43be
00000140: fa9c f3bd 6f80 9abe 7748 22bd 66a0 9eb9
00000150: 1cf2 0cbc 8e01 76be 2537 573c c17e 36be
00000160: f66b 983c 37d4 ecbc 16ad 8b3c 88b6 c4bb
00000170: a382 8cbe 60eb 43be abc3 673c c843 e43d
00000180: 72f1 16bd e650 26be 8562 203b 23a7 043e
00000190: 85fc a0bd 41bd 8fbd 0620 9b3d 090f 193d
000001a0: b1d0 9b3d dba4 2abd dfbc a83c ec9a 78be
000001b0: 0eac 2abe 0566 7dbd a1d6 0fbc 5027 cfbd
000001c0: b7ec ef3c 5ebb 48be b2b6 82be c9f2 52be
000001d0: 1215 4cbe 9108 16bd 6198 5ebd 6494 68be
000001e0: 65e0 87be e5b9 713d 350f c03d ab5e 043d
000001f0: 6f93 e73d 743c 493c 10ff 27be c8d3 77be
00000200: 412a b53d 7096 5d3e b411 433e 0525 e63d
00000210: cf43 203e ab3c bf3d f88c 593e 6d46 263e
00000220: 3212 aa3d 8edf f13d fe53 213c 4cb6 2e3e
00000230: 2914 393d 88c9 a83e 8e86 c63b 874b 4e3e
00000240: e02d 933e 0c1b 8b3c e7f4 8a3d bea3 173d
00000250: 7691 c93d d88c a83e 99ff 8e3d 09d8 ee3d
00000260: 2ee9 ad3d 01a5 ad3e 6376 263c c300 2e3e
00000270: 9075 3d3d 11a3 a43d 8487 643e ace0 fa3d
00000280: 52dd f0b9 d1c7 f03d d9f3 a53e cdd4 9e3c
00000290: fc00 f93d 7784 c83d 448d c03d 1c53 4a3d
000002a0: 51fc a23e 6a74 983d eb49 bc3d 2875 f33d
000002b0: 8597 853d 19e1 2b3e 942b 5a3d 2d1e 843e
000002c0: 7d25 733e c45f 063e 5c5c 343e e2fa 873e
000002d0: 00bf 3e3e cbc8 953e 7e7a b63d 7ed4 e33d
000002e0: d93a 163e 4bb8 5d3e 668b a03d b154 af3d
000002f0: acba 9d3c 306e 773d 7e9b 0d3e 4197 343d
00000300: d8cb 8fbd 2fc7 413e cc94 063e 367d a33e
00000310: 1356 a03d 0420 453e ccac a63e 7a5b b33e
00000320: c183 4a3d 0e01 043e 9499 e43d 5ba9 323d
00000330: f519 873e bca1 203d 69a6 8e3d a36f c53d
00000340: 5626 713e 7c76 bb3e 5f48 713d 0810 1d3e
00000350: ed9a b83c 7909 9a3e 75fd 013e eefd 843e
00000360: 8b6f 7c3d fc5a d73d 4ce3 013e 90d0 883d
00000370: dd14 923e 8b5c 873e beb9 ca3d 6f27 773d
00000380: 571c 803d 14f9 c43d 4244 903c 390e cd3d
00000390: 198f 3e3e 2498 7d3d 56d6 263d 47e7 283d
000003a0: e2c9 d13d 6b14 483e 62c8 873d ad19 d13e
000003b0: 6abc 6d3e 0032 4f3e 65bb 073d 5013 573d
000003c0: 0e09 0f3e 4f4b a33e 70d5 703e 9074 b23e
000003d0: 6c47 cb3e f56a 3f3d 6703 a43d e9cc bd3e
000003e0: beb6 a43e 0a36 c53d b8a5 c5bc 9cd6 5b3d
000003f0: c1ed 4e3e f332 833d fb76 ea3d afe1 ab3e
-0.088278495 -0.12208709 0.036954477 -0.074700594 -0.12760514 0.010711133 -0.047145545 0.031081537
0.04250669 -0.18801755 -0.037761062 0.10410752 -0.02355688 -0.27387595 -0.015604436 -0.051290344
-0.18762386 -0.004841903 0.025157703 -0.069442935 -0.09181618 -0.23857568 0.033738155 -0.048805904
0.019215927 -0.040163096 0.0043041264 -0.0031570978 0.008860183 0.027221892 -0.17163618 -0.028822185
-0.039545953 -0.08001687 -0.11099566 -0.078707084 0.052988835 -0.06977685 0.024561077 5.6960213e-05
-0.030855957 0.09945557 0.010037184 -0.0006676516 0.010019114 -0.034721375 -0.029020887 -0.20329788
-0.2915878 0.03296176 -0.0077901757 -0.26032302 0.032514345 -0.2060162 0.00033271353 0.0547085
-0.08826038 -0.119565085 0.048048146 -0.0229946 -0.011421997 -0.022352979 -0.0052231904 0.0062105814
0.00028220707 -0.109736055 0.07431235 -0.3067819 0.110832416 -0.24881645 -0.0041516847 -0.24578607
0.04694009 -0.14271775 0.01387856 -0.025275085 -0.18271868 0.038427796 0.044991497 -0.19128112
-0.11895175 -0.30176112 -0.03961989 -0.00030255615 -0.008602645 -0.2402403 0.013135706 -0.1782179
0.018606167 -0.028909786 0.017050307 -0.0060032047 -0.27443418 -0.19132757 0.014145772 0.11145741
-0.036851354 -0.16241798 0.0024472785 0.12954383 -0.07860664 -0.07018519 0.07574467 0.037367854
0.07608164 -0.041661125 0.020597873 -0.24277848 -0.16667196 -0.06186487 -0.008779199 -0.1011492
0.02928768 -0.19602725 -0.2553001 -0.20600428 -0.19929913 -0.036629263 -0.05434454 -0.22712857
-0.26538387 0.059015173 0.093779005 0.032316845 0.113074176 0.01228248 -0.16405892 -0.24201882
0.0884595 0.21639419 0.19049722 0.1123753 0.15650867 0.09337743 0.21245182 0.16237803
0.08304252 0.11810218 0.009846685 0.17061728 0.04518524 0.32966256 0.0060585206 0.20145999
0.28745937 0.01698067 0.06784993 0.03702139 0.098421976 0.32919955 0.06982345 0.11662299
0.08491741 0.3391495 0.0101600615 0.16992478 0.046254694 0.08038915 0.2231732 0.12249884
-0.00045941264 0.11756862 0.32412603 0.01938858 0.12158391 0.09790891 0.09401944 0.049395666
0.31833127 0.07444079 0.09193786 0.1188758 0.06523041 0.16785087 0.053264216 0.25804272
0.2374477 0.13122469 0.17613357 0.26558596 0.18627548 0.29254755 0.08910082 0.11124514
0.14670886 0.21652333 0.07839088 0.085610755 0.019254051 0.060407817 0.13828847 0.04408956
-0.07021302 0.18923639 0.13142699 0.31931466 0.07828917 0.19250494 0.3255371 0.3503073
0.049442057 0.12891027 0.11162105 0.04361854 0.2638699 0.039216742 0.06965334 0.09640434
0.2354978 0.36613834 0.05890691 0.15338147 0.022534812 0.30085352 0.12694342 0.25974983
0.061629813 0.10515401 0.12684363 0.06680405 0.28531542 0.26437792 0.09898709 0.06034034
0.062554054 0.096178204 0.017610673 0.100124784 0.18609275 0.06191267 0.04073175 0.04123619
0.10243584 0.19539039 0.06630017 0.40839902 0.23216406 0.20233917 0.033137698 0.052508652
0.13968298 0.31893393 0.2351892 0.34854555 0.39702928 0.04673286 0.080084614 0.37070397
0.3217067 0.09629448 -0.024126872 0.053671464 0.20207883 0.06406202 0.11448475 0.3357062

bias_hh_l1 f4 [512]
00000000: b842 b5bd ef1d e1bd c522 a93d 8da3 b0bd
00000010: bfeb 13be f080 443c c283 acbd 3efd 6c3d
00000020: b240 473d 8396 38be 1954 d1bc a6fc d63d
00000030: a53c 923b a353 7bbe 118d 8d3b 6df9 e8bc
00000040: 0100 3fbe f9d8 7b3b 9131 193d 1eb5 8abd
00000050: 6718 44bd f36c 78be 8161 4b3d 46a0 60bd
00000060: 08fc 0abd 1d9b 3abd d848 cbba f86e 22bd
00000070: d8e2 46bd c17f 843b 5599 39be a00e b1bd
00000080: e643 8bbd 645c 79bd 2a75 11be 3759 bdbc
00000090: f664 d63d 2f0a 44bd 76ad b0bc fbb0 8a3c
000000a0: 7414 28bd 16c7 373d d22d 253d f2c0 12bc
000000b0: af6e 08bc fa12 d1bd 3db8 d5bc 1688 65be
000000c0: 37ab 81be eaa9 1ebb 08b9 5fbd 1800 adbe
000000d0: eb3e 41bc 2618 60be 9a13 163d dba1 5e3d
000000e0: 565f e3bd 8716 12be 830d 563d 7ebe 98bd
000000f0: a370 073d 97e9 d8bd e2f7 0f3d 4d11 133d
00000100: add4 293c 17ed ffbc d75b 3dbc f040 c7be
00000110: 8759 a23d 561a 8ebe 4a9b f03c 78e7 43be
00000120: b667 163b 5190 93bd a355 5cbc 640d 98bd
00000130: fd4b 3ebe 9874 01bd faec 06bd ecbb e5bd
00000140: 5df6 4dbd 88b3 64be cabd 95bb 7405 87bd
00000150: 2c06 89bd 74eb 1cbe ef87 6ebc b61b 2cbe
00000160: 2749 6bbc 1ea7 e538 1204 2b3c 2c43 e0bb
00000170: 041a 2bbe 2817 45be 2f30 f8bc fa6a 9a3c
00000180: a321 68bd 7a73 55be 674a 3ebc 0d6c 0c3e
00000190: d634 a3bd 6807 e3bd af9e f83c 9e21 8b3d
000001a0: 7639 4c3d 289c 74bd 94bf 2dbd 4cb9 15be
000001b0: ef86 5ebe 1a11 22bd 91cb ba3d 8bcd e3bd
000001c0: 9647 35bd e02f 96be 477a 5ebe beb0 a0be
000001d0: 31ae afbe 2c0f 0ebd 3933 d2bc bf97 24be
000001e0: be41 3dbe fee1 b23c 0b45 fe3d 84d1 553c
000001f0: b23c c13d 5d2c e2bb c7c9 99bd b244 94be
00000200: e46e 103e 704e d23d 8232 813e 512b c53d
00000210: 7c81 153e 6748 c33d 5b8e 603e 8988 333e
00000220: e0db 603d 6698 463e 22cd 8c3c 8345 363e
00000230: 8b97 003d 223c b43e e44c b53c bd26 053e
00000240: b7ab 903e c39c 6739 95f1 193e 4cee 923d
00000250: 67de 143d ab23 3a3e ba1f a73d 3678 0c3e
00000260: 63fd c93d aa66 b03e ff0d 5abc 9019 373e
00000270: 5af1 c1bc f77b c0bc 6937 133e 7e4a 2e3e
00000280: bf70 ddbc 2f52 133d 2268 b33e c2ea 433c
00000290: 8ac1 953d 4565 b53b c9c2 0a3e ef83 0f3e
000002a0: ee77 ab3e 4c66 833d 3efd f43d 8f54 e53d
000002b0: 9bcd 5a3d b5db 5f3e 5934 f93d d8f1 6a3e
000002c0: 7ef0 423e d5a4 f73d 0a14 333e a8d6 943e
000002d0: 307d 0f3e 2313 823e 11bb 113e 10b6 d53d
000002e0: 2bf3 163e 991a 953e 9d8b 8e3d 9c31 033e
000002f0: 9eda ad3d 066b 883c e5f9 853c 7ec1 743d
00000300: 65ce 39bc 70dc 723e 615a 743d d090 9a3e
00000310: b3ab ac3d c921 983e 4430 9c3e db49 d83e
00000320: 09a5 813d a6ce 0c3e fcd6 0b3e b612 663d
00000330: 82b6 853e 28f9 243d aae6 423e 7e2a 1d3e
00000340: 2a89 133e cfd0 9b3e ee0f 7e3d b88e 103e
00000350: 39d8 ff3d ab0b 903e 99c8 053e 61fb 353e
00000360: c035 ea3d f92a 1d3e e0d8 013e 8a15 f83c
00000370: f50a 9b3e 5c17 a93e 0f10 433d bb00 b8bc
00000380: d1c5 833d 4f44 073e fa1e 4f3b c473 ab3d
00000390: 1b01 763e 3497 fb3c edee 033d e3e0 a03d
000003a0: bc26 323e 6adc 7f3e 96b8 e03d 962f a73e
000003b0: 53cf 6a3e 2f78 653e 5853 0f3e a98d f73c
000003c0: d8c4 f83d 1689 7f3e 96a3 b03e 30f8 b53e
000003d0: 1671 b33e 44fd f33d dc3c d43d 1136 ba3e
000003e0: eb76 a73e d005 113d 4fc5 a6bc bf9f 063d
000003f0: ae48 3c3e 2c57 573d 689c 2b3e 199d b13e
-0.08850616 -0.109920375 0.08258585 -0.08624945 -0.14445399 0.011993632 -0.08423568 0.057858698
0.048645683 -0.18026166 -0.025552796 0.104974076 0.004462796 -0.24543624 0.004319795 -0.028439248
-0.18652345 0.0038428886 0.037400786 -0.067728266 -0.047874834 -0.24260311 0.049653534 -0.05484035
-0.033931762 -0.045558084 -0.001550938 -0.03965661 -0.04855618 0.0040435498 -0.18124898 -0.086453676
-0.0680006 -0.060879126 -0.14204851 -0.02311383 0.104684755 -0.047861274 -0.021567088 0.016930094
-0.04103513 0.044867598 0.0403269 -0.008957135 -0.00832717 -0.102086976 -0.026088828 -0.22415194
-0.2532594 -0.0024210163 -0.05461982 -0.33789134 -0.011794786 -0.21884212 0.036639787 0.054353576
-0.11102168 -0.14266406 0.05225898 -0.074582085 0.033066403 -0.10591429 0.03514851 0.03590517
0.010365647 -0.031240983 -0.011557541 -0.3891673 0.07927232 -0.27754468 0.029370923 -0.19131267
0.002295 -0.072052605 -0.013448152 -0.07424429 -0.18583675 -0.031605333 -0.032940842 -0.11217484
-0.05028378 -0.2233411 -0.0045697438 -0.06592837 -0.0669063 -0.15324193 -0.014558776 -0.16807446
-0.014360703 0.00010950699 0.010437982 -0.006843945 -0.16709143 -0.19247115 -0.030296413 0.018849839
-0.056672703 -0.20844832 -0.011614419 0.13713093 -0.07969062 -0.11085397 0.030349104 0.06793521
0.049859487 -0.059719235 -0.04241903 -0.14621466 -0.2173116 -0.03956709 0.091208585 -0.111231886
-0.044257723 -0.293334 -0.21726333 -0.31384844 -0.34312585 -0.034682438 -0.02565919 -0.16073512
-0.1848211 0.021836277 0.12415513 0.013050441 0.09435405 -0.006902261 -0.07509189 -0.2895866
0.14104801 0.10268867 0.25233847 0.096274026 0.14600176 0.09535294 0.21929304 0.17532553
0.05489719 0.19394073 0.017187659 0.17799954 0.031394523 0.35202128 0.02213139 0.13003059
0.28256008 0.00022088275 0.15033562 0.07174358 0.036344912 0.18177669 0.08160348 0.13717732
0.09862783 0.34453326 -0.013309001 0.17880845 -0.023674656 -0.023496611 0.14376606 0.17020604
-0.0270313 0.03596705 0.35040385 0.011957826 0.07312305 0.005535754 0.13550867 0.14015172
0.33489937 0.06415996 0.119623646 0.11197769 0.053418737 0.21861155 0.12168188 0.22943819
0.19037053 0.12091986 0.17488113 0.2907002 0.14012599 0.25405225 0.14231516 0.10435116
0.14741199 0.29121855 0.06960223 0.12811893 0.084889635 0.016652595 0.01635451 0.05975484
-0.011340712 0.23716903 0.059656505 0.30188608 0.084311865 0.29713276 0.30505574 0.42243847
0.06330306 0.13750705 0.13656229 0.056170188 0.26115805 0.040276676 0.19033304 0.1534824
0.14407793 0.30432746 0.06202691 0.14116943 0.12492413 0.28133902 0.13064803 0.17771675
0.11436033 0.15348424 0.12680387 0.030283708 0.30281797 0.33025634 0.047622737 -0.022461286
0.06434215 0.13209651 0.0031604157 0.0837169 0.24023859 0.030711748 0.03221028 0.07855394
0.17397588 0.24986425 0.10972707 0.32653493 0.2293065 0.22409128 0.13996637 0.030218916
0.1214692 0.24954638 0.34499806 0.35540915 0.35047215 0.11913541 0.103631705 0.36369374
0.32707915 0.035405934 -0.020357756 0.03286719 0.183871 0.052573368 0.16758883 0.34690168
